ASR Model EncDecCTCModelBPE(
  (preprocessor): AudioToMelSpectrogramPreprocessor(
    (featurizer): FilterbankFeatures()
  )
  (encoder): ConformerEncoder(
    (pre_encode): ConvSubsampling(
      (out): Linear(in_features=2560, out_features=1024, bias=True)
      (conv): Sequential(
        (0): Conv2d(1, 256, kernel_size=(3, 3), stride=(2, 2), padding=(1, 1))
        (1): ReLU(inplace=True)
        (2): Conv2d(256, 256, kernel_size=(3, 3), stride=(2, 2), padding=(1, 1), groups=256)
        (3): Conv2d(256, 256, kernel_size=(1, 1), stride=(1, 1))
        (4): ReLU(inplace=True)
        (5): Conv2d(256, 256, kernel_size=(3, 3), stride=(2, 2), padding=(1, 1), groups=256)
        (6): Conv2d(256, 256, kernel_size=(1, 1), stride=(1, 1))
        (7): ReLU(inplace=True)
      )
    )
    (pos_enc): RelPositionalEncoding(
      (dropout): Dropout(p=0.1, inplace=False)
    )
    (layers): ModuleList(
      (0-23): 24 x ConformerLayer(
        (norm_feed_forward1): LayerNorm((1024,), eps=1e-05, elementwise_affine=True)
        (feed_forward1): ConformerFeedForward(
          (linear1): Linear(in_features=1024, out_features=4096, bias=True)
          (activation): Swish()
          (dropout): Dropout(p=0.1, inplace=False)
          (linear2): Linear(in_features=4096, out_features=1024, bias=True)
        )
        (norm_conv): LayerNorm((1024,), eps=1e-05, elementwise_affine=True)
        (conv): ConformerConvolution(
          (pointwise_conv1): Conv1d(1024, 2048, kernel_size=(1,), stride=(1,))
          (depthwise_conv): CausalConv1D(1024, 1024, kernel_size=(9,), stride=(1,), groups=1024)
          (batch_norm): BatchNorm1d(1024, eps=1e-05, momentum=0.1, affine=True, track_running_stats=True)
          (activation): Swish()
          (pointwise_conv2): Conv1d(1024, 1024, kernel_size=(1,), stride=(1,))
        )
        (norm_self_att): LayerNorm((1024,), eps=1e-05, elementwise_affine=True)
        (self_attn): RelPositionMultiHeadAttention(
          (linear_q): Linear(in_features=1024, out_features=1024, bias=True)
          (linear_k): Linear(in_features=1024, out_features=1024, bias=True)
          (linear_v): Linear(in_features=1024, out_features=1024, bias=True)
          (linear_out): Linear(in_features=1024, out_features=1024, bias=True)
          (dropout): Dropout(p=0.1, inplace=False)
          (linear_pos): Linear(in_features=1024, out_features=1024, bias=False)
        )
        (norm_feed_forward2): LayerNorm((1024,), eps=1e-05, elementwise_affine=True)
        (feed_forward2): ConformerFeedForward(
          (linear1): Linear(in_features=1024, out_features=4096, bias=True)
          (activation): Swish()
          (dropout): Dropout(p=0.1, inplace=False)
          (linear2): Linear(in_features=4096, out_features=1024, bias=True)
        )
        (dropout): Dropout(p=0.1, inplace=False)
        (norm_out): LayerNorm((1024,), eps=1e-05, elementwise_affine=True)
      )
    )
  )
  (decoder): ConvASRDecoder(
    (decoder_layers): Sequential(
      (0): Conv1d(1024, 1025, kernel_size=(1,), stride=(1,))
    )
  )
  (loss): CTCLoss()
  (spec_augmentation): SpectrogramAugmentation(
    (spec_augment): SpecAugment()
  )
  (wer): WER()
)